{"class_name": "Model", "keras_version": "2.0.1", "config": {"layers": [{"class_name": "InputLayer", "config": {"dtype": "float32", "batch_input_shape": [null, 9, 20], "name": "input_2", "sparse": false}, "inbound_nodes": [], "name": "input_2"}, {"class_name": "InputLayer", "config": {"dtype": "float32", "batch_input_shape": [null, 34, 20], "name": "input_1", "sparse": false}, "inbound_nodes": [], "name": "input_1"}, {"class_name": "Conv1D", "config": {"kernel_constraint": null, "kernel_initializer": {"class_name": "VarianceScaling", "config": {"distribution": "uniform", "scale": 1.0, "seed": null, "mode": "fan_avg"}}, "name": "conv1d_2", "bias_regularizer": null, "bias_constraint": null, "activation": "linear", "trainable": true, "padding": "valid", "strides": [1], "dilation_rate": [1], "kernel_regularizer": null, "filters": 32, "bias_initializer": {"class_name": "Zeros", "config": {}}, "use_bias": true, "activity_regularizer": null, "kernel_size": [3]}, "inbound_nodes": [[["input_2", 0, 0, {}]]], "name": "conv1d_2"}, {"class_name": "Conv1D", "config": {"kernel_constraint": null, "kernel_initializer": {"class_name": "VarianceScaling", "config": {"distribution": "uniform", "scale": 1.0, "seed": null, "mode": "fan_avg"}}, "name": "conv1d_1", "bias_regularizer": null, "bias_constraint": null, "activation": "linear", "trainable": true, "padding": "valid", "strides": [1], "dilation_rate": [1], "kernel_regularizer": null, "filters": 32, "bias_initializer": {"class_name": "Zeros", "config": {}}, "use_bias": true, "activity_regularizer": null, "kernel_size": [3]}, "inbound_nodes": [[["input_1", 0, 0, {}]]], "name": "conv1d_1"}, {"class_name": "PReLU", "config": {"name": "p_re_lu_2", "alpha_constraint": null, "trainable": true, "alpha_regularizer": null, "alpha_initializer": {"class_name": "Zeros", "config": {}}, "shared_axes": null}, "inbound_nodes": [[["conv1d_2", 0, 0, {}]]], "name": "p_re_lu_2"}, {"class_name": "PReLU", "config": {"name": "p_re_lu_1", "alpha_constraint": null, "trainable": true, "alpha_regularizer": null, "alpha_initializer": {"class_name": "Zeros", "config": {}}, "shared_axes": null}, "inbound_nodes": [[["conv1d_1", 0, 0, {}]]], "name": "p_re_lu_1"}, {"class_name": "MaxPooling1D", "config": {"padding": "valid", "strides": [2], "trainable": true, "name": "max_pooling1d_2", "pool_size": [2]}, "inbound_nodes": [[["p_re_lu_2", 0, 0, {}]]], "name": "max_pooling1d_2"}, {"class_name": "MaxPooling1D", "config": {"padding": "valid", "strides": [2], "trainable": true, "name": "max_pooling1d_1", "pool_size": [2]}, "inbound_nodes": [[["p_re_lu_1", 0, 0, {}]]], "name": "max_pooling1d_1"}, {"class_name": "Flatten", "config": {"trainable": true, "name": "flatten_2"}, "inbound_nodes": [[["max_pooling1d_2", 0, 0, {}]]], "name": "flatten_2"}, {"class_name": "Flatten", "config": {"trainable": true, "name": "flatten_1"}, "inbound_nodes": [[["max_pooling1d_1", 0, 0, {}]]], "name": "flatten_1"}, {"class_name": "Concatenate", "config": {"trainable": true, "name": "concatenate_1", "axis": -1}, "inbound_nodes": [[["flatten_2", 0, 0, {}], ["flatten_1", 0, 0, {}]]], "name": "concatenate_1"}, {"class_name": "Dense", "config": {"kernel_initializer": {"class_name": "VarianceScaling", "config": {"distribution": "uniform", "scale": 1.0, "seed": null, "mode": "fan_avg"}}, "name": "dense_1", "kernel_constraint": null, "bias_regularizer": null, "bias_constraint": null, "activation": "linear", "trainable": true, "kernel_regularizer": null, "bias_initializer": {"class_name": "Zeros", "config": {}}, "units": 64, "use_bias": true, "activity_regularizer": null}, "inbound_nodes": [[["concatenate_1", 0, 0, {}]]], "name": "dense_1"}, {"class_name": "Dropout", "config": {"rate": 0.3, "trainable": true, "name": "dropout_1"}, "inbound_nodes": [[["dense_1", 0, 0, {}]]], "name": "dropout_1"}, {"class_name": "Dense", "config": {"kernel_initializer": {"class_name": "VarianceScaling", "config": {"distribution": "uniform", "scale": 1.0, "seed": null, "mode": "fan_avg"}}, "name": "dense_2", "kernel_constraint": null, "bias_regularizer": null, "bias_constraint": null, "activation": "linear", "trainable": true, "kernel_regularizer": null, "bias_initializer": {"class_name": "Zeros", "config": {}}, "units": 8, "use_bias": true, "activity_regularizer": null}, "inbound_nodes": [[["dropout_1", 0, 0, {}]]], "name": "dense_2"}, {"class_name": "Dropout", "config": {"rate": 0.3, "trainable": true, "name": "dropout_2"}, "inbound_nodes": [[["dense_2", 0, 0, {}]]], "name": "dropout_2"}, {"class_name": "Dense", "config": {"kernel_initializer": {"class_name": "VarianceScaling", "config": {"distribution": "uniform", "scale": 1.0, "seed": null, "mode": "fan_avg"}}, "name": "dense_3", "kernel_constraint": null, "bias_regularizer": null, "bias_constraint": null, "activation": "relu", "trainable": true, "kernel_regularizer": null, "bias_initializer": {"class_name": "Zeros", "config": {}}, "units": 1, "use_bias": true, "activity_regularizer": null}, "inbound_nodes": [[["dropout_2", 0, 0, {}]]], "name": "dense_3"}], "input_layers": [["input_1", 0, 0], ["input_2", 0, 0]], "output_layers": [["dense_3", 0, 0]], "name": "model_1"}, "backend": "theano"}